assets/models/ki_modell.tflite (tflite, 165092 bytes, 6 tensors)

sequential/dense/BiasAdd/ReadVariableOp f4 [64]
0.002541861 0.023002775 0.03342632 0.011881359 0.055461645 -0.00081194355 0.013948653 0.0036688205
0.0137579795 0.010248489 0.032342494 0.0002775681 0.06739507 0.038454954 -0.00022097993 0.010731009
0.04451511 0.044991817 -0.0023571476 0.019177299 0.026942274 0.01910564 0.009336426 0.03765734
0.0069842516 0.010071136 0.008915821 0.011709957 0.062768154 0.027788509 0.04284898 0.015773192
0.024732638 -0.001136571 -0.02408009 0.010494562 0.029158983 0.025172325 0.035412077 0.06895508
0.027481705 0.05137815 0.019255845 0.027800808 0.018575491 0.027021043 0.011566267 0.028386058
0.023919571 0.018203076 0.056917164 0.03609898 0.0255819 0.035635397 -0.016831983 0.0034785168
0.010542509 -0.004883158 0.046179812 -0.0018524785 0.03811526 -0.00083460903 0.01702274 0.00077339594
00000000: 5a95 263b 5170 bc3c 09ea 083d 08aa 423c
00000010: c02b 633d 9cd8 54ba e488 643c 9870 703b
00000020: 2669 613c 47e9 273c 9079 043d 8f86 9139
00000030: 6d06 8a3d f182 1d3d d9b6 67b9 1dd1 2f3c
00000040: 7a55 363d 5749 383d 607a 1abb b619 9d3c
00000050: 0bb6 dc3c 6e83 9c3c cff7 183c 953e 1a3d
00000060: 26dc e43b 6801 253c aa13 123c 1fdb 3f3c
00000070: 978c 803d baa4 e33c 6982 2f3d c836 813c
00000080: 1a9c ca3c fff8 94ba 9c43 c5bc 62f1 2b3c
00000090: d2de ee3c 3136 ce3c 410c 113d 5238 8d3d
000000a0: 5021 e13c e571 523d 6fbe 9d3c 85be e33c
000000b0: a12b 983c 3c5b dd3c 7180 3d3c e189 e83c
000000c0: faf2 c33c 9e1e 953c f921 693d 86dc 133d
000000d0: 2291 d13c 6cf6 113d 3ae3 89bc d4f7 633b
000000e0: 7dba 2c3c e602 a0bb 0b27 3d3d ddce f2ba
000000f0: bf1e 1c3d aac9 5aba 4673 8b3c b9bd 4a3a

sequential/dense_2/BiasAdd/ReadVariableOp f4 [4]
-0.016290681 -0.031088265 0.024939382 0.0075952136
00000000: 0974 85bc d1ac febc ad4d cc3c 45e1 f83b

sequential/dense_1/BiasAdd/ReadVariableOp f4 [32]
-0.012848385 0.028888626 0.018822167 0.022146914 0.008133791 0.02194612 -0.0059541804 0.0058002644
0.0043576057 -0.020481883 0.0603891 0.06408753 0.013931233 0.027855253 0.009176504 0.058468305
0.0057452247 -0.0007798596 0.013518548 0.009393891 0.0007539999 0.027897686 -0.007908789 -0.004963365
-0.010404209 0.010967451 -0.016985469 0.034606643 -0.0064932737 0.04410024 0.032694407 0.02301535
00000000: 0882 52bc d7a7 ec3c f230 9a3c 726d b53c
00000010: 9843 053c 59c8 b33c 491b c3bb 2510 be3b
00000020: 3fca 8e3b 9fc9 a7bc 905a 773d 5340 833d
00000030: d43f 643c b330 e43c 0c59 163c 767c 6f3d
00000040: 7042 bc3b 7e6f 4cba e67c 5d3c d6e8 193c
00000050: 14a8 453a b089 e43c de93 01bc b9a3 a2bb
00000060: 6a76 2abc d3b0 333c 1c25 8bbc b2bf 0d3d
00000070: 87c5 d4bb 74a2 343d 92ea 053d b08a bc3c

sequential/dense/MatMul f4 [64, 600]
0.008034864 0.05944593 0.08360379 0.026813067 0.032905098 -0.053054728 0.023208102 0.111660406
0.08203017 -0.055095587 0.10632831 -0.08560885 0.047668062 -0.012446736 0.054658916 -0.11518986
0.064236864 0.0059952927 -0.07898067 0.0883734 0.004439611 0.07534018 0.057208996 -0.085742414
0.07129136 0.0325947 0.032009836 0.05135758 0.07814281 -0.017100459 0.026755337 -0.079611465
-0.015721275 0.044648107 -0.019702043 -0.004980928 -0.03402828 0.07955559 0.09673085 -0.086554095
0.011948687 -0.05147841 -0.0035145525 -0.0017360516 0.08409574 0.012753407 -0.01588664 0.013455092
0.05844756 -0.018553983 -0.042216327 0.031521007 0.011672701 -0.047292728 -0.051915646 -0.025807831
0.061713535 0.08434362 0.010015397 -0.028873164 -0.024985405 -0.0026145487 0.06930314 0.019941071
0.09172154 -0.046200544 -0.06426079 -0.06012244 -0.0043896902 0.10800954 0.037346583 -0.02662676
-0.0673731 0.078126006 -0.061650526 -0.061451472 -0.005163935 0.058840863 0.08270895 0.07262141
0.060902182 0.0007543267 0.069636896 0.049869496 -0.010118875 0.01544584 -0.031281363 0.07932864
-0.023382151 0.054943617 -0.029046599 0.00024865087 -0.0186253 -0.0043527815 -0.062361836 0.073367395
0.031316906 -0.056974415 0.049017556 -0.06299327 0.005871875 -0.092895575 -0.024948517 -0.07505239
-0.05052001 0.03357914 -0.07221006 0.07651992 -0.031707563 -0.05573213 -0.019017218 0.073901854
0.042557146 -0.10214018 -0.045962647 0.029690906 -0.04246201 0.069839545 -0.0022254041 -0.009205266
0.054232266 0.0510766 -0.008961755 0.068833746 -0.04056072 0.07053908 0.03263664 -0.05961514
0.059973445 0.07938211 -0.07222496 0.02228364 -0.017062122 0.044453986 -0.03065955 -0.037061166
0.07643843 -0.07119922 -0.009744366 -0.09502735 0.10985236 -0.107268974 0.071309395 0.012860632
0.08338715 0.042011697 0.10508193 0.0015308844 0.091249906 -0.073737435 -0.03650536 0.058934025
0.06584125 -0.033531595 0.09176959 0.06629996 0.07115383 -0.103166096 0.052720178 -0.06290518
-0.0017051842 -0.061130818 0.02165326 -0.053907122 0.0023286473 -0.05875932 -0.10100141 -0.09406874
-0.07280407 -0.00309292 -0.02405634 -0.058408264 0.0004831004 -0.015251275 -0.10956366 -0.04850892
-0.06627258 -0.062663876 0.0036999718 -0.021626504 -0.07146614 0.026411045 -0.08969425 0.010836853
-0.040287275 0.06338614 -0.00045846138 -0.0860657 -0.010363759 -0.075806625 -0.004855743 0.060771205
-0.042119414 0.04093603 -0.07620935 -0.00583497 -0.12838133 -0.041923158 0.025625365 0.08084503
0.00072132226 -0.085488744 -0.06955377 -0.009101115 -0.10560608 0.0021305534 -0.06890758 -0.035815436
-0.019760616 -0.014952752 -0.040794294 -0.040049836 0.04438544 -0.05039314 -0.09792567 -0.09017138
-0.045184355 -0.047082722 0.015191908 0.077064194 0.040310547 0.02654518 0.07221654 0.1028582
0.031158382 -0.066056035 0.024860738 0.051896214 0.059582114 0.0791145 -0.07347495 -0.041618526
-0.1260713 0.07545498 0.08906746 0.07705928 -0.07557538 -0.07256823 0.03659138 -0.06860108
0.09843973 -0.06683359 0.060752567 -0.010722913 0.023433076 0.05409161 0.058469683 -0.038189225
-0.038760256 0.052078363 0.03309591 0.008524738 0.088033795 0.09678318 -0.05680946 0.08372264
00000000: aaa4 033c 937d 733d 7738 ab3d 14a7 db3c
00000010: 7fc7 063d ea4f 59bd eb1e be3c 36ae e43d
00000020: 6fff a73d e9ab 61bd a8c2 d93d b153 afbd
00000030: 963f 433d 65ed 4bbc 07e2 5f3d a9e8 ebbd
00000040: 9e8e 833d 2974 c43b 9ec0 a1bd 1dfd b43d
00000050: 287a 913b f44b 9a3d fb53 6a3d b899 afbd
00000060: 3401 923d 0582 053d bf1c 033d 535c 523d
00000070: 5609 a03d 4316 8cbc 022e db3c 560b a3bd
00000080: e7c9 80bc efe0 363d 2e66 a1bc 0d37 a3bb
00000090: 3d61 0bbd 0bee a23d d31a c63d 4643 b1bd
000000a0: 6dc4 433c 06db 52bd 6854 66bb 3a8c e3ba
000000b0: 633a ac3d aaf3 503c b324 82bc bf72 5c3c
000000c0: b566 6f3d 86fe 97bc 07eb 2cbd 2c1c 013d
000000d0: db3e 3f3c 05b6 41bd 80a5 54bd f26a d3bc
000000e0: 55c7 7c3d 59bc ac3d 9f17 243c 6a87 ecbc
000000f0: 31ae ccbc d958 2bbb ceee 8d3d 755b a33c
00000100: 81d8 bb3d c83c 3dbd 299b 83bd f342 76bd
00000110: 64d7 8fbb 1b34 dd3d bbf8 183d 5d20 dabc
00000120: e8fa 89bd 8700 a03d 4385 7cbd 8ab4 7bbd
00000130: 3a36 a9bb 1e03 713d 4f63 a93d 89ba 943d
00000140: 9174 793d 02be 453a ca9d 8e3d f543 4c3d
00000150: a3c9 25bc 8c10 7d3c e320 00bd 0e77 a23d
00000160: ed8b bfbc 8f0c 613d 22f3 edbc 5b5d 8239
00000170: 1694 98bc c7a1 8ebb 206f 7fbd a541 963d
00000180: 2846 003d 015e 69bd a2c6 483d 9e02 81bd
00000190: dc68 c03b 0940 bebd d560 ccbc 11b5 99bd
000001a0: 12ee 4ebd 488a 093d dee2 93bd 7ab6 9c3d
000001b0: cadf 01bd 6047 64bd ffc9 9bbc db59 973d
000001c0: 6750 2e3d df2e d1bd 5443 3cbd 583a f33c
000001d0: a5ec 2dbd 0908 8f3d 16d8 11bb afd1 16bc
000001e0: a722 5e3d b235 513d 53d4 12bc b5f8 8c3d
000001f0: ff22 26bd cb76 903d ffad 053d 012f 74bd
00000200: b7a6 753d 1693 a23d aeea 93bd 2e8c b63c
00000210: ddc5 8bbc 6215 363d bd29 fbbc 73cd 17bd
00000220: c08b 9c3d e6d0 91bd d5a6 1fbc b39d c2bd
00000230: 46fa e03d d6af dbbd a90a 923d 66b5 523c
00000240: e2c6 aa3d 7514 2c3d 3235 d73d f5a7 c83a
00000250: 3be1 ba3d a703 97bd a586 15bd ce64 713d
00000260: c7d7 863d 6d58 09bd b2f1 bb3d 46c8 873d
00000270: 19b9 913d bf48 d3bd 1df1 573d 6ed4 80bd
00000280: 7d80 dfba 4f64 7abd 2d62 b13c b7cd 5cbd
00000290: 389c 183b 9dad 70bd d4d9 cebd 1da7 c0bd
000002a0: 4d1a 95bd 96b2 4abb cd11 c5bc 813d 6fbd
000002b0: a348 fd39 7ce0 79bc ea62 e0bd 4ab1 46bd
000002c0: ebb9 87bd eb55 80bd 3a7b 723b 112a b1bc
000002d0: d75c 92bd fa5b d83c 9eb1 b7bd 0e8d 313c
000002e0: 4504 25bd 98d0 813d a55d f0b9 3743 b0bd
000002f0: c1cc 29bc 8140 9bbd ed1c 9fbb 3aeb 783d
00000300: 6885 2cbd 8aac 273d a613 9cbd 4733 bfbb
00000310: 6576 03be 9eb7 2bbd 49ec d13c 1492 a53d
00000320: 1e17 3d3a b914 afbd 3572 8ebd d81c 15bc
00000330: 0048 d8bd c1a0 0b3b 6b1f 8dbd 35b3 12bd
00000340: 04e1 a1bc 63fc 74bc eb17 27bd 4c0b 24bd
00000350: 82cd 353d 0a69 4ebd 418d c8bd c6ab b8bd
00000360: 3b13 39bd d0d9 40bd 7be7 783c d5d3 9d3d
00000370: ac1c 253d 4775 d93c 44e6 933d 52a7 d23d
00000380: dd3f ff3c 6348 87bd bfa8 cb3c 2091 543d
00000390: 600c 743d c806 a23d 097a 96bd 3078 2abd
000003a0: d618 01be 2488 9a3d 0069 b63d 41d1 9d3d
000003b0: 44c7 9abd a79e 94bd d8e0 153d b97e 8cbd
000003c0: c59a c93d 0de0 88bd afd7 783d 28af 2fbc
000003d0: b9f6 bf3c 2a8f 5d3d e87d 6f3d 4e6c 1cbd
000003e0: 13c3 1ebd 1f50 553d 948f 073d 58ab 0b3c
000003f0: 104b b43d 4336 c63d 09b1 68bd c776 ab3d

sequential/dense_1/MatMul f4 [32, 64]
0.12385829 0.09801181 0.25348696 0.07766304 0.045960277 0.017860204 0.18623367 0.19370073
0.094194524 0.19308966 0.20703188 -0.024205882 -0.19745371 0.06923471 -0.06465378 -0.26920265
0.21227235 -0.15464213 0.24675648 0.22159947 0.2445532 0.07650548 0.16160531 0.06910626
0.053183783 -0.19405083 0.08171525 0.036723685 -0.12767045 -0.23515768 -0.026678804 0.21087588
-0.25843936 0.1602301 -0.21726786 -0.13942842 -0.14674705 -0.20796478 0.13004638 -0.03397999
0.13343976 0.024602102 -0.1048773 0.15003018 0.055629957 0.06428849 -0.22833507 -0.23878099
-0.13939936 0.10769591 -0.058540896 0.035520595 -0.0326898 -0.12700911 0.042804733 -0.26807028
0.19497266 0.16728643 -0.19654311 0.07544599 -0.054470263 0.009827108 0.20695113 0.056493085
-0.020205878 0.2724236 -0.016717955 0.036028214 -0.0037656203 0.23418935 0.1855901 0.09233277
-0.1550356 -0.25935525 -0.011039079 -0.18346412 0.029061247 0.18977635 -0.1568283 0.2818317
-0.08883668 0.2850794 0.11188461 -0.03184684 -0.27570006 0.11600607 -0.08096975 0.24019796
-0.05754077 -0.04668751 -0.05585961 -0.21868563 0.27650797 0.13086973 -0.061560687 0.14671935
0.18171895 0.001302541 -0.089323014 -0.10056151 0.20375457 -0.16195312 0.13986582 0.23587589
0.09695265 0.02360974 -0.22660932 0.023940133 0.23502913 -0.23437034 0.28193322 0.15475428
0.11926793 0.035958864 0.081123725 0.11680338 0.038857717 -0.2175643 -0.060570437 0.06738445
0.15370864 0.1459283 0.29818657 0.12707229 0.04042521 0.20422599 0.18337482 -0.035846937
-0.0840175 0.18638757 -0.15940443 0.26026723 -0.044692773 0.14380296 -0.0031977503 -0.16428335
-0.011004735 0.18499354 -0.010224856 0.10128283 0.22158808 -0.1028974 -0.104121044 -0.15866075
-0.063775614 -0.26917034 -0.1570553 0.2900606 -0.19080943 0.01911805 0.022346787 0.046380907
0.22806367 0.12644388 0.05011601 -0.10395215 0.13682649 -0.11253712 0.20684132 0.06833124
-0.047774695 0.18441345 -0.22409002 0.17864631 0.052744243 -0.16980605 -0.04123861 -0.09245819
0.2772974 -0.0065297903 -0.14515753 0.21841314 -0.24596033 -0.0076655555 0.04374488 -0.0019460513
-0.10683742 0.03880443 0.15038088 0.19513632 -0.15559049 0.18189062 0.054962847 0.20911314
-0.050652955 0.0736563 0.12398114 -0.17803223 -0.23735471 0.23739852 -0.062457543 0.24184485
-0.10926488 0.21252686 0.05841719 0.24317676 0.22178759 -0.1707045 -0.21042696 0.043270238
0.101090856 0.22234581 -0.18969472 0.16112474 0.22126977 -0.2156479 -9.90987e-05 0.189861
-0.07862905 0.286506 0.043382455 0.18324128 0.07136231 -0.16463542 0.122166984 -0.05504468
0.27750406 0.33330357 0.20802327 0.08679159 -0.104261026 0.1259703 0.2212928 -0.11306424
0.16198719 0.17366299 0.1735596 0.26771832 0.0139007 0.26990998 0.31902704 -0.18254246
0.040396232 -0.11849582 -0.013083825 0.017697798 0.10566657 0.22960334 0.00431684 -0.07432444
-0.039311085 -0.06871809 0.2372556 0.043094568 -0.11251636 0.12861289 -0.16591585 0.30069587
-0.11316145 -0.20488422 -0.028345473 0.17210837 -0.15051065 0.02317248 0.10902182 -0.23229821
00000000: 6aa9 fd3d 6aba c83d 0bc9 813e cd0d 9f3d
00000010: d840 3c3d 904f 923c 0ab4 3e3e 7c59 463e
00000020: 0fe9 c03d 4cb9 453e 2a00 543e 6a4b c6bc
00000030: 4e31 4abe edca 8d3d 3369 84bd eed4 89be
00000040: ec5d 593e 825a 1ebe bbad 7c3e f9ea 623e
00000050: 276c 7a3e e8ae 9c3d dd7b 253e 9587 8d3d
00000060: 3dd7 593d 43b5 46be 535a a73d 936b 163d
00000070: 0bbc 02be 2dcd 70be 828d dabc d9ef 573e
00000080: 2a52 84be 5c13 243e 777b 5ebe 53c6 0ebe
00000090: dc44 16be b8f4 54be e12a 053e 9a2e 0bbd
000000a0: 6fa4 083e 598a c93c e9c9 d6bd 83a1 193e
000000b0: 3ddc 633d afa9 833d abd0 69be 0183 74be
000000c0: b5be 0ebe ac8f dc3d 94c8 6fbd 0b7e 113d
000000d0: bde5 05bd ad0e 02be 0454 2f3d 8240 89be
000000e0: eaa6 473e 224d 2b3e 9942 49be 6d83 9a3d
000000f0: 361c 5fbd e101 213c ffea 533e 4b65 673d
00000100: cc86 a5bc 1b7b 8b3e 18f4 88bc 5292 133d
00000110: a0c8 76bb 55cf 6f3e 550b 3e3e f718 bd3d
00000120: a7c1 1ebe 36ca 84be 41dd 34bc 05de 3bbe
00000130: da11 ee3c bb54 423e 9997 20be 3f4c 903e
00000140: 01f0 b5bd edf5 913e c223 e53d d571 02bd
00000150: 8f28 8dbe 9794 ed3d 78d3 a5bd 74f6 753e
00000160: dfaf 6bbd 673b 3fbd 0ccd 64bd 20ef 5fbe
00000170: 7492 8d3e b702 063e 0f27 7cbd 993d 163e
00000180: 8814 3a3e 06ba aa3a fcee b6bd 31f3 cdbd
00000190: 0aa5 503e 0ad7 25be fc38 0f3e 7389 713e
000001a0: 1c8f c63d 3769 c13c 460c 68be 191e c43c
000001b0: 7aab 703e c7fe 6fbe 8d59 903e e877 1e3e
000001c0: bf42 f43d 9a49 133d 3224 a63d 9c36 ef3d
000001d0: 4529 1f3d 2dc9 5ebe b518 78bd dc00 8a3d
000001e0: cc65 1d3e 3a6e 153e e9ab 983e 3d1f 023e
000001f0: e894 253d 9e20 513e 9cc6 3b3e 3dd4 12bd
00000200: 5e11 acbd 62dc 3e3e ea3a 23be bf41 853e
00000210: c50f 37bd 1541 133e 5991 51bb e539 28be
00000220: 344d 34bc f26e 3d3e 2886 27bc 5f6d cf3d
00000230: fce7 623e dfbb d2bd 6a3d d5bd f777 22be
00000240: ca9c 82bd b2d0 89be 1bd3 20be d382 943e
00000250: 8c63 43be 759d 9c3c 9c10 b73c e8f9 3d3d
00000260: 8689 693e 817a 013e 7246 4d3d dde4 d4bd
00000270: 3e1c 0c3e dd79 e6bd 36ce 533e 40f1 8b3d
00000280: 66af 43bd e1d6 3c3e db77 65be 0fef 363e
00000290: 590a 583d a3e1 2dbe d1e9 28bd b85a bdbd
000002a0: edf9 8d3e daf7 d5bb 2da4 14be b2a7 5f3e
000002b0: 06dd 7bbe 572f fbbb d52d 333d a512 ffba
000002c0: 94cd dabd 65f1 1e3d 72fd 193e d1d1 473e
000002d0: 1d53 1fbe 8941 3a3e b920 613d c121 563e
000002e0: 7979 4fbd 1dd9 963d d3e9 fd3d 154e 36be
000002f0: 1d0d 73be 9918 733e 7bd3 7fbd 2da6 773e
00000300: 44c6 dfbd a4a0 593e dd46 6f3d 5403 793e
00000310: 491c 633e 29cd 2ebe 2a7a 57be 223c 313d
00000320: b908 cf3d 9fae 633e 553f 42be e2fd 243e
00000330: 8b94 623e ced2 5cbe 36d3 cfb8 ec6a 423e
00000340: 4408 a1bd eab0 923e cdb1 313d 9aa3 3b3e
00000350: 6726 923d 3096 28be af32 fa3d 8876 61bd
00000360: 0315 8e3e c4a6 aa3e 0d04 553e cabf b13d
00000370: ce86 d5bd 5cfe 003e 949a 623e 398e e7bd
00000380: f8df 253e b6d4 313e 9cb9 313e 6012 893e
00000390: c3bf 633c a431 8a3e 8357 a33e 69ec 3abe
000003a0: 8576 253d f0ad f2bd 8a5d 56bc f9fa 903c
000003b0: b767 d83d 231d 6b3e 4774 8d3b 6937 98bd
000003c0: a904 21bd 12bc 8cbd 22f3 723e ee83 303d
000003d0: fa6e e6bd 19b3 033e d8e5 29be cff4 993e
000003e0: 31c1 e7bd 2bcd 51be c434 e8bc 2d3d 303e
000003f0: 771f 1abe 36d4 bd3c d546 df3d 95df 6dbe

sequential/dense_2/MatMul f4 [4, 32]
-0.3771304 0.16774681 -0.018767545 -0.32557616 0.13510428 -0.08380193 -0.015110299 0.15889984
0.060700264 0.1477597 -0.3213843 -0.27120325 0.4632548 0.3663592 0.12509088 -0.2986813
-0.46760273 0.47186723 -0.15184048 0.14649267 0.6870291 -0.19924225 -0.5716858 -0.10812203
-0.36895815 -0.051803157 0.14709406 0.26473555 0.25833896 0.016320596 -0.30189478 0.26605433
0.44830495 -0.14299376 0.19060093 -0.44490334 -0.3928017 -0.24527475 -0.00319772 -0.022516424
-0.119221576 0.20156634 -0.25261104 -0.3506187 -0.20601234 -0.20140225 0.13995968 -0.4318681
0.39269546 -0.51548964 0.0047153705 0.2079812 -0.7730081 -0.050999813 0.53196394 -0.24201123
0.122567505 0.2643006 0.2907193 0.16482039 0.06383939 -0.53561145 -0.25435695 -0.08799544
-0.14544743 0.21364254 0.3247024 -0.29986444 -0.34622353 -0.45663947 -0.4219975 -0.26514065
-0.36598942 0.16075687 -0.072285324 0.41340202 -0.5130976 0.30499914 0.10360626 0.031531285
-0.3083924 -0.1758793 0.4463429 -0.42940405 0.10769348 0.34052005 -0.42234194 -0.33156872
-0.050882433 -0.4367774 -0.36562082 0.37912107 -0.081663914 0.22107506 -0.19779587 0.46587306
0.052541878 0.353869 0.19552556 -0.06973775 0.040101126 0.4960364 -0.019449044 0.21947435
0.1645956 0.28059384 -0.18850346 0.22243893 0.101574115 -0.15298589 -0.45030522 -0.07238254
0.3768689 -0.40984493 -0.38023934 -0.4537823 -0.35440823 -0.055619348 0.26971105 0.027681185
0.11793172 0.42604673 -0.1229739 -0.49825203 0.22365077 0.02980181 0.53317595 -0.017161272
00000000: 3c17 c1be d2c5 2b3e 65be 99bc ebb1 a6be
00000010: c758 0a3e 59a0 abbd 3091 77bc a4b6 223e
00000020: d7a0 783d 524e 173e 7c8c a4be 27db 8abe
00000030: bc2f ed3e 6f93 bb3e d317 003e c1ec 98be
00000040: a069 efbe 9598 f13e 127c 1bbe 2d02 163e
00000050: 24e1 2f3f 2906 4cbe 005a 12bf 156f ddbd
00000060: 15e8 bcbe 8c2f 54bd d39f 163e 6b8b 873e
00000070: 0145 843e c5b2 853c f491 9abe 4638 883e
00000080: 3a88 e53e f56c 12be e42c 433e 5fca e3be
00000090: 4e1d c9be 4e29 7bbe d790 51bb 5d74 b8bc
000000a0: 712a f4bd 6867 4e3e 3c56 81be 4b84 b3be
000000b0: e6f4 52be 643c 4ebe 9751 0f3e d11d ddbe
000000c0: 610f c93e 21f7 03bf 6583 9a3b 06f9 543e
000000d0: dce3 45bf 2ee5 50bd ca2e 083f cbd1 77be
000000e0: ac04 fb3d 6952 873e 29d9 943e adc6 283e
000000f0: 3abe 823d d51d 09bf 133b 82be f436 b4bd
00000100: 2cf0 14be 1cc5 5a3e 653f a63e d587 99be
00000110: 3644 b1be a6cc e9be 0e10 d8be 84c0 87be
00000120: f762 bbbe 739d 243e 540a 94bd 6ea9 d33e
00000130: 5d5a 03bf d928 9c3e 852f d43d f326 013d
00000140: 9ce5 9dbe b419 34be 0e87 e43e d9da dbbe
00000150: 668e dc3d a558 ae3e 343d d8be 60c3 a9be
00000160: 196a 50bd 4aa1 dfbe a732 bbbe 281c c23e
00000170: 693f a7bd 8061 623e 008b 4abe ea86 ee3e
00000180: 2736 573d 512e b53e da37 483e aad2 8ebd
00000190: 1441 243d 7cf8 fd3e 9a53 9fbc e2bd 603e
000001a0: c08b 283e ffa9 8f3e 0d07 41be 08c7 633e
000001b0: 1706 d03d 55a8 1cbe 688e e6be 4c3d 94bd
000001c0: f6f4 c03e 32d7 d1be bbae c2be 2756 e8be
000001d0: ff74 b5be 1dd1 63bd 9117 8a3e a7c3 e23c
000001e0: 3086 f13d cc22 da3e bdd9 fbbd e41a ffbe
000001f0: b504 653e ed22 f43c 387e 083f cc95 8cbc
