assets/models/ki_modell.tflite (tflite, 165092 bytes, 6 tensors)

sequential/dense/BiasAdd/ReadVariableOp f4 [64]
0.044452894 0.013127494 0.020529345 0.0028442794 0.02153965 0.020186262 0.056283206 0.016819991
0.017234111 0.005943454 -0.0022514265 0.0024383557 0.021446774 0.0146303335 0.05340766 0.031205852
0.014788371 -0.0061622653 0.026959037 0.034216482 0.025794622 -0.0037032596 0.023246985 0.007848268
0.030919133 0.03418117 0.02085624 0.018304354 0.032518625 0.017534139 0.026897669 0.032176673
0.035516333 0.028962636 0.044046517 -0.0049266173 -0.008609949 0.021664698 0.028247677 -0.018722408
0.034368124 0.023206364 0.010474843 0.0024180694 0.0049435375 0.01910274 0.02468687 0.030054199
0.046135556 -0.011824659 0.045631472 0.05476483 0.0003814007 0.040588148 0.025633791 0.039052617
0.002625961 0.042940397 0.006840437 -0.0053015044 -0.0016439562 0.026731245 0.04350441 0.006718743
00000000: 3d14 363d b314 573c 282d a83c 1767 3a3b
00000010: ec73 b03c a95d a53c 3889 663d 14ca 893c
00000020: 8d2e 8d3c 4ec1 c23b ab8c 13bb d2cc 1f3b
00000030: 25b1 af3c 11b4 6f3c fec1 5a3d 6aa3 ff3c
00000040: ec4a 723c d4ec c9bb 33d9 dc3c 9526 0c3d
00000050: 3e4f d33c 63b2 72bb 7670 be3c 0696 003c
00000060: 1f4a fd3c 8e01 0c3d b5da aa3c 03f3 953c
00000070: 4032 053d c1a3 8f3c 8058 dc3c b0cb 033d
00000080: 9379 113d 0d43 ed3c 1f6a 343d 766f a1bb
00000090: be10 0dbc 2a7a b13c ac67 e73c bc5f 99bc
000000a0: 97c5 0c3d 461b be3c ad9e 2b3c 7978 1e3b
000000b0: 66fd a13b 597d 9c3c 1e3c ca3c 3934 f63c
000000c0: a3f8 3c3d 37bc 41bc 11e8 3a3d 1651 603d
000000d0: bcf6 c739 c23f 263d f5fd d13c a3f5 1f3d
000000e0: 5118 2c3b 45e2 2f3d bf25 e03b 3eb8 adbb
000000f0: 047a d7ba 7cfb da3c ae31 323d e728 dc3b

sequential/dense_2/BiasAdd/ReadVariableOp f4 [4]
0.006938879 -0.0072048046 -0.013744172 0.008358833
00000000: 895f e33b 4816 ecbb 3c2f 61bc 7df3 083c

sequential/dense_1/BiasAdd/ReadVariableOp f4 [32]
-0.022949738 0.0052430127 0.005009277 0.025821595 0.013822301 0.017267589 0.003710476 0.009514606
-0.0013041089 0.028899299 -0.0019392391 -0.019966263 0.036304582 0.02025027 0.0036646181 0.026102945
-0.0026105635 0.030542394 -0.004894921 0.006995629 0.03189411 -0.0125635285 0.019392893 0.057876
0.0133883115 0.03741802 0.025861772 0.028322224 0.021608789 0.033843335 0.0002383445 0.025794268
00000000: 1701 bcbc 94cd ab3b dc24 a43b cf87 d33c
00000010: ef76 623c c274 8d3c 752b 733b 26e3 1b3c
00000020: a2ee aaba 39be ec3c 112e feba 4a90 a3bc
00000030: 1db4 143d e5e3 a53c 172a 703b d8d5 d53c
00000040: fd15 2bbb 0b34 fa3c 9365 a0bb 973b e53b
00000050: 66a3 023d 42d7 4dbc d8dd 9e3c 620f 6d3d
00000060: a65a 5b3c a343 193d 11dc d33c 0204 e83c
00000070: ea04 b13c 4f9f 0a3d 1dec 7939 804e d33c

sequential/dense/MatMul f4 [64, 600]
0.083309114 0.086782716 0.06792117 -0.046616465 -0.024590643 -0.0718242 0.14006215 0.14742789
-0.07692057 -0.04673653 0.0069477214 -0.10768768 0.10123512 0.018818444 -0.048374716 -0.05464499
0.041473627 0.016136926 0.15764928 0.033879004 0.059902657 -0.07947249 0.022136686 -0.060344506
0.0625221 0.060353965 0.029303348 -0.11571695 -0.049034037 0.09863213 0.039508156 -0.018104615
0.037243146 -0.09236156 -0.040753253 0.07798386 0.07777896 0.10588489 -0.06168558 0.006582066
-0.06915891 0.030940942 0.07098139 0.10672879 0.06410668 -0.09183076 -0.017022468 0.017780034
0.0934855 0.10336954 0.09364517 -0.058385532 -0.016466163 0.030441342 -0.008612059 0.03027807
-0.047072113 -0.039432842 -0.11933736 -0.08199948 0.047513083 0.040483303 -0.047649838 -0.06945528
0.02104172 -0.08490172 -0.029167363 0.0703162 0.072988376 -0.00404215 -0.0355815 -0.064502455
0.05054355 0.057919152 -0.012569899 -0.03691447 -0.0382847 -0.036985002 -0.011680905 -0.029460158
0.08842506 0.03728561 -0.02767776 -0.02235046 -0.13315222 0.08375017 0.091423824 0.0018550652
-0.10256731 0.018568302 -0.008470853 0.07689552 0.0124028325 0.0028260688 -0.02564149 -0.03988772
-0.08921537 0.012685966 0.026521845 0.018557189 -0.04439143 0.025882293 -0.14098369 -0.014622831
-0.04611411 -0.058345385 -0.09223266 -0.06969971 -0.14765348 -0.05340955 0.0061932323 -0.043012917
0.046277564 0.07747223 -0.09675102 0.008708006 -0.06682173 -0.030523585 -0.018455626 0.06846544
-0.02143004 0.009869009 0.048320513 0.07901734 0.034814507 0.020498771 -0.000618235 -0.12730429
0.0056305085 -0.0053848187 0.03513247 -0.06235344 0.06276601 -0.10183897 0.021007933 0.028542971
-0.007168215 0.07859394 0.08673264 -0.10548147 0.09666434 0.028508494 -0.015348037 -0.09102748
-0.0075251446 0.018099483 0.0016183957 -0.012314327 0.040826835 0.09807474 0.044868473 -0.009286596
0.092114165 0.04477449 -0.08759693 0.06738319 0.014182416 0.03891686 -0.0064395242 0.039187755
-0.059284113 0.042211164 -0.012530222 -0.10778889 0.037249032 0.06221818 0.00043681753 -0.039151255
-0.040780555 -0.016638396 -0.045329034 0.0014374157 -0.03361582 0.08625931 -0.10688529 0.012345468
0.022745505 0.038978692 -0.060984343 0.009764603 0.074387 0.022068838 0.08219116 0.06799989
0.061224442 0.061509132 0.03923506 -0.07903778 -0.04536804 -0.026448997 0.030538088 -0.030039743
0.017716225 -0.12717468 -0.09331638 0.015747245 0.031823944 -0.053012103 0.049361218 -0.09438804
-0.043756112 0.05827666 -0.019374894 -0.0126230605 -0.011805379 -0.06535447 0.014519416 0.08617519
0.069043495 0.07348273 -0.08730245 -0.15013847 -0.114931576 -0.03884013 0.14815749 -0.026711062
0.054578066 -0.06259972 -0.04407929 0.108572274 0.16526635 -0.010345056 -0.0014110261 -0.042404994
-0.09512512 -0.017044412 -0.004371935 0.059463177 0.018325288 -0.0011300767 -0.022439502 -0.0062842234
-0.052240256 0.06456083 -0.0007883757 -0.10157397 0.033710513 0.015410738 0.020296693 0.07032808
0.073521696 0.047431573 0.03654833 -0.09094995 0.060359385 -0.0036380873 0.028423168 -0.042862203
0.049530122 -0.10086731 -0.066506535 0.07168153 0.023581076 -0.003175607 0.04890423 -0.032695457
00000000: f89d aa3d 23bb b13d 411a 8b3d e8f0 3ebd
00000010: 5172 c9bc 9118 93bd 746c 0f3e 56f7 163e
00000020: 8888 9dbd ce6e 3fbd b6a9 e33b 5c8b dcbd
00000030: 5c54 cf3d 2329 9a3c 9124 46bd 6dd3 5fbd
00000040: 40e0 293d 9631 843c d06e 213e b6c4 0a3d
00000050: 7d5c 753d 79c2 a2bd ff57 b53c cd2b 77bd
00000060: 960b 803d b835 773d 930d f03c 02fd ecbd
00000070: ead7 48bd a4ff c93d 4ed3 213d 2150 94bc
00000080: 458c 183d 0f28 bdbd e2ec 26bd 01b6 9f3d
00000090: 934a 9f3d 2dda d83d 05aa 7cbd 5fae d73b
000000a0: 30a3 8dbd dc77 fd3c b15e 913d a094 da3d
000000b0: 5d4a 833d c411 bcbd b472 8bbc 6fa7 913c
000000c0: 5375 bf3d 69b3 d33d 0ac9 bf3d ab25 6fbd
000000d0: 0ce4 86bc 1f60 f93c 9819 0dbc b709 f83c
000000e0: b0ce 40bd 5584 21bd 2567 f4bd 58ef a7bd
000000f0: 149d 423d d2d1 253d 7a2c 43bd 923e 8ebd
00000100: af5f ac3c f4e0 adbd 65f0 eebc f101 903d
00000110: ee7a 953d 0374 84bb e8bd 11bd dd19 84bd
00000120: c106 4f3d a23c 6d3d faf1 4dbc a133 17bd
00000130: 6bd0 1cbd 967d 17bd 4461 3fbc 6e56 f1bc
00000140: 3318 b53d ccb8 183d 78bc e2bc 5018 b7bc
00000150: 0e59 08be 3685 ab3d 6a3c bb3d a925 f33a
00000160: cf0e d2bd 8d1c 983c 55c9 0abc 667b 9d3d
00000170: 4035 4b3c 9135 393b 1a0e d2bc 4e61 23bd
00000180: 8cb6 b6bd ccd8 4f3c 5744 d93c 3f05 983c
00000190: cad3 35bd 1a07 d43c 075e 10be 9994 6fbc
000001a0: 26e2 3cbd 92fb 6ebd 7ae4 bcbd b9be 8ebd
000001b0: 7932 17be f9c3 5abd 99f0 ca3b 502e 30bd
000001c0: 8b8d 3d3d c3a9 9e3d 6625 c6bd 06ac 0e3c
000001d0: d5d9 88bd 990c fabc 4130 97bc 9c37 8c3d
000001e0: 0d8e afbc a0b1 213c bbeb 453d d8d3 a13d
000001f0: a899 0e3d 0aed a73c 0c11 22ba 0e5c 02be
00000200: 2180 b83b 2273 b0bb 11e7 0f3d 5266 7fbd
00000210: 778b 803d f390 d0bd d418 ac3c f3d2 e93c
00000220: 58e3 eabb dcf5 a03d e2a0 b13d ab06 d8bd
00000230: f4f7 c53d a58a e93c 5576 7bbc 9e6c babd
00000240: 7d95 f6bb 5e45 943c 5920 d43a 08c2 49bc
00000250: 0a3a 273d 69db c83d 01c8 373d cf26 18bc
00000260: 5aa6 bc3d 7565 373d 0566 b3bd 3300 8a3d
00000270: 5d5d 683c 4967 1f3d a502 d3bb 5783 203d
00000280: e6d3 72bd 9de5 2c3d 8f4b 4dbc 6cc0 dcbd
00000290: 7192 183d 7ed8 7e3d a804 e539 115d 20bd
000002a0: 8309 27bd 3f4d 88bc f0aa 39bd ab67 bc3a
000002b0: beb0 09bd b9a8 b03d ade6 dabd a544 4a3c
000002c0: c854 ba3c 1fa8 1f3d b8ca 79bd b7fb 1f3c
000002d0: 3658 983d b5c9 b43c d753 a83d 8743 8b3d
000002e0: 7bc6 7a3d 00f1 7b3d f1b4 203d 8fde a1bd
000002f0: d7d3 39bd 91ab d8bc 032b fa3c e815 f6bc
00000300: 9e21 913c 143a 02be a91c bfbd 5e00 813c
00000310: d359 023d 3823 59bd fd2e 4a3d 844e c1bd
00000320: 9c39 33bd 82b3 6e3d 19b8 9ebc f4d0 4ebc
00000330: 596b 41bc 90d8 85bd d8e2 6d3c 9e7c b03d
00000340: ad66 8d3d 1d7e 963d a0cb b2bd e6bd 19be
00000350: 3f61 ebbd d416 1fbd 99b6 173e 28d1 dabc
00000360: 408d 5f3d 4834 80bd 7c8c 34bd 245b de3d
00000370: 953b 293e 4f7e 29bc 2ef2 b8ba dcb0 2dbd
00000380: f5d0 c2bd b9a0 8bbc 7342 8fbb a98f 733d
00000390: ea1e 963c 151f 94ba 0cd3 b7bc e3eb cdbb
000003a0: e1f9 55bd 7838 843d ffaa 4eba 0306 d0bd
000003b0: 0914 0a3d 527d 7c3c 4045 a63c 2b08 903d
000003c0: 8b92 963d 9c47 423d b4b3 153d f843 babd
000003d0: 673b 773d fa6c 6ebb b4d7 e83c 4790 2fbd
000003e0: 19e0 4a3d 8593 cebd 9434 88bd c4cd 923d
000003f0: 1a2d c13c d81d 50bb cd4f 483d aceb 05bd

sequential/dense_1/MatMul f4 [32, 64]
-0.13490634 0.20084618 0.07822078 -0.254313 -0.23431483 -0.17099373 -0.03646937 0.01786582
-0.04149074 0.20066836 -0.26743448 -0.20391777 -0.19080928 -0.10133856 0.09465756 -0.15139727
0.1924656 0.1658586 -0.1533519 -0.12888688 -0.1856394 -0.15909064 0.09377404 -0.24432893
0.024229094 0.19876857 0.08668006 -0.1373419 -0.0977998 -0.015658295 0.090632536 0.08354118
0.0032354537 -0.15772778 0.16220604 -0.11798982 -0.21435732 -0.18712948 -0.20049268 -0.10805502
0.14010137 -0.25345564 0.12758574 0.013219563 -0.13102852 -0.024623891 -0.0021189502 -0.23246744
0.05197991 -0.22627516 -0.20309825 0.13399266 -0.019397767 0.22991852 -0.12860823 -0.20152104
-0.060058895 -0.16616508 -0.17359082 0.028822659 -0.25847697 -0.08813679 -0.2412649 0.18515706
-0.18094055 -0.21776308 0.06244243 -0.1478271 0.13254313 -0.10103936 -0.14324975 0.2196536
-0.14744428 0.14096412 -0.021801353 0.113958515 -0.09287597 0.122212715 0.20291781 0.00839978
-0.07348276 0.058620535 0.24446765 -0.25825986 0.20374522 -0.18019596 0.18048741 0.16444239
0.13454409 -0.14613472 -0.06521951 0.09921075 0.07613583 0.19926885 -0.017822696 0.089242004
0.15923893 0.030401973 0.14684024 -0.14373702 0.21629345 -0.09240461 0.15758482 -0.15625916
-0.039232288 0.07049856 0.08323889 0.2850439 -0.07331519 0.22050166 -0.14747389 -0.14269799
0.018172074 -0.10428106 0.1438347 0.0147459125 -0.007941826 0.018413225 0.032189526 0.10835019
-0.09654048 0.072882906 -0.06502336 -0.10863519 -0.13462514 -0.20988342 0.20650049 0.106885724
0.019916072 0.16812497 0.07342477 0.034205217 0.20566912 0.25002313 0.27943632 -0.19477388
-0.21907677 0.10281484 -0.053441804 -0.05039041 -0.16564846 -0.0011354807 0.24562725 0.023839744
-0.016296858 0.12697797 -0.25381342 -0.11850863 0.056216996 0.15715611 -0.13614237 -0.22673044
-0.251478 -0.25017974 0.011762395 0.26177233 0.22584279 -0.15004402 0.15707876 -0.12415118
-0.1357947 -0.16618448 0.13203728 0.117758684 0.0780673 -0.039254714 0.2825697 -0.030438174
-0.017437603 -0.068206355 -0.04806481 -0.025192238 0.19515884 0.029353803 0.1681947 0.122390725
-0.12439568 -0.058064464 -0.053232595 0.21784246 0.046843782 -0.08041998 -0.021589084 -0.24924347
-0.16715425 -0.11695124 0.07734159 -0.016590131 0.15244833 0.13267188 0.058337156 -0.015423633
0.21562102 -0.09699447 0.17874965 0.21594343 0.14828259 -0.06340171 0.11060354 -0.16489576
-0.06180265 0.27352178 -0.14650369 0.023849318 0.11088422 -0.20013414 0.2751771 -0.24670862
-0.058001198 -0.19117285 0.023924265 0.2108369 -0.050534323 -0.06090861 -0.024526358 -0.082812235
0.022497931 0.14033395 0.25867504 -0.03158068 0.16449372 0.20607178 0.07271868 -0.03144777
0.060289267 -0.18822344 0.17597759 -0.074017905 0.18483232 0.28090858 -0.044822603 0.039027054
0.004868025 0.10229276 -0.12086306 0.07380969 -0.12591872 0.28589165 -0.027191808 0.2083631
0.09773566 -0.10995339 0.17880227 0.0098023005 -0.14151923 -0.10915005 0.081618 -0.03854905
-0.112328075 0.22055879 0.049439084 -0.08492068 -0.045776077 0.13432807 0.06286491 -0.13289419
00000000: e324 0abe 9faa 4d3e 3732 a03d 5035 82be
00000010: 3af0 6fbe fb18 2fbe e860 15bd 575b 923c
00000020: 32f2 29bd 027c 4d3e 2ced 88be d2cf 50be
00000030: 8263 43be 978a cfbd d3db c13d e307 1bbe
00000040: b415 453e d6d6 293e 4808 1dbe ecfa 03be
00000050: 4118 3ebe a8e8 22be 9b0c c03d 5d31 7abe
00000060: 187c c63c fd89 4b3e 5185 b13d 5ba3 0cbe
00000070: 434b c8bd d345 80bc 8d9d b93d a317 ab3d
00000080: e809 543b 6483 21be 5719 263e a6a4 f1bd
00000090: 7c80 5bbe df9e 3fbe f44d 4dbe f34b ddbd
000000a0: bc76 0f3e f0c4 81be d6a5 023e de96 583c
000000b0: 572c 06be 0bb8 c9bc 16de 0abb f20b 6ebe
000000c0: e3e8 543d adb4 67be fdf8 4fbe 5f35 093e
000000d0: 11e8 9ebc c36f 6b3e e0b1 03be 885b 4ebe
000000e0: 5100 76bd 2e27 2abe cbc1 31be 7f1d ec3c
000000f0: 1857 84be 1081 b4bd 250e 77be d099 3d3e
00000100: 7b48 39be 49fd 5ebe a2c3 7f3d fd5f 17be
00000110: 63b9 073e b9ed cebd 10b0 12be e0ec 603e
00000120: a2fb 16be e658 103e c098 b2bc 1563 e93d
00000130: c235 bebd a94a fa3d b0c9 4f3e 3b9f 093c
00000140: 217e 96bd 161c 703d ba55 7a3e a33a 84be
00000150: 96a2 503e 4a85 38be b1d1 383e 9663 283e
00000160: edc5 093e 57a4 15be ce91 85bd 012f cb3d
00000170: 1aed 9b3d 220d 4c3e e700 92bc 83c4 b63d
00000180: 880f 233e 8f0d f93c 4a5d 163e cc2f 13be
00000190: 087c 5d3e a13e bdbd ea5d 213e 6702 20be
000001a0: 09b2 20bd 8d61 903d 2779 aa3d 46f1 913e
000001b0: 4626 96bd 30cb 613e 6503 17be 6c1f 12be
000001c0: 9add 943c 4f91 d5bd 6749 133e d798 713c
000001d0: 6f1e 02bc 55d7 963c 2ad9 033d b4e6 dd3d
000001e0: 04b7 c5bd a243 953d f82a 85bd 207c debd
000001f0: 2cdb 09be aeeb 56be dd74 533e e7e6 da3d
00000200: 0827 a33c f428 2c3e ba5f 963d c51a 0c3d
00000210: ed9a 523e 0803 803e 4712 8f3e ce72 47be
00000220: a955 60be 9690 d23d cbe5 5abd 2d66 4ebd
00000230: c09f 29be 69d4 94ba b685 7b3e 914b c33c
00000240: fd80 85bc 8306 023e d5f3 81be a7b4 f2bd
00000250: cb43 663d 88ed 203e e868 0bbe 062c 68be
00000260: b9c1 80be 8f17 80be 0fb7 403c 0607 863e
00000270: 5543 673e 24a5 19be 41d9 203e f942 febd
00000280: c40d 0bbe 442c 2abe c834 073e 772b f13d
00000290: c0e1 9f3d 8dc9 20bd faac 903e 7a59 f9bc
000002a0: 4ed9 8ebc c6af 8bbd 9bdf 44bd f45f cebc
000002b0: b8d7 473e 6377 f03c 3b3b 2c3e fda7 fa3d
000002c0: 2ac3 febd 01d5 6dbd 6c0a 5abd 1812 5f3e
000002d0: 44df 3f3d 3bb3 a4bd 97db b0bc ae39 7fbe
000002e0: 7c2a 2bbe 2284 efbd 4465 9e3d 07e8 87bc
000002f0: 6a1b 1c3e 23db 073e f1f2 6e3d 68b3 7cbc
00000300: c2cb 5c3e 09a5 c6bd 260a 373e 4620 5d3e
00000310: 64d7 173e c1d8 81bd 1c84 e23d 6fda 28be
00000320: c724 7dbd 0c0b 8c3e 1005 16be a55f c33c
00000330: 4417 e33d f7ef 4cbe 03e4 8c3e 2fa1 7cbe
00000340: aa92 6dbd d1c2 43be d2fc c33c a1e5 573e
00000350: 14fd 4ebd 4e7b 79bd 80eb c8bc 7699 a9bd
00000360: 954d b83c b4b3 0f3e 0e71 843e be5a 01bd
00000370: 0b71 283e 7b04 533e 88ed 943d 60cf 00bd
00000380: e1f1 763d a5bd 40be 7833 343e b396 97bd
00000390: af44 3d3e 40d3 8f3e e897 37bd d5da 1f3d
000003a0: f483 9f3b de7e d13d 0d87 f7bd 8929 973d
000003b0: d6f0 00be 6460 923e 5bc1 debc 235d 553e
000003c0: a229 c83d 3e2f e1bd f117 373e d499 203c
000003d0: 6bea 10be 108a dfbd 5727 a73d 9ce5 1dbd
000003e0: 430c e6bd 2ada 613e a380 4a3d e5ea adbd
000003f0: b27f 3bbd 4c8d 093e 51bf 803d 6a15 08be

sequential/dense_2/MatMul f4 [4, 32]
-0.17621322 -0.3568706 -0.47479838 -0.30337015 -0.43432382 -0.090865634 0.44435346 0.15399274
-0.4814635 -0.16550906 0.19305901 -0.11291813 -0.26575854 0.4275992 0.2189268 0.20944715
-0.20026635 -0.16506492 -0.036067724 0.13896707 0.18424556 -0.39820153 0.4965775 0.0513381
-0.3058685 0.054317363 -0.2999776 0.38598463 0.136694 0.2919148 -0.3472667 0.07597203
0.17423417 -0.27981725 -0.12648948 -0.10799961 -0.16337956 0.013587193 -0.35531592 -0.089088
0.21585584 0.2519436 -0.35910547 0.18857537 0.28862908 -0.09805696 -0.21089524 0.027258668
0.3650435 -0.30738458 -0.17317128 -0.019268712 -0.38251665 0.18402736 -0.40489867 -0.026631258
0.3180847 -0.40496966 -0.07352453 -0.060355358 -0.2521039 0.30233207 -0.06011395 -0.3460472
0.38085657 0.39652753 0.41905788 0.19398081 -0.22848952 -0.47426698 -0.04750148 -0.07404848
-0.12259083 -0.44569823 -0.12202851 -0.32263094 0.47241482 -0.18660781 0.25931257 0.15876162
0.2782735 -0.07445867 0.13358045 -0.30435187 -0.30224246 0.16595289 -0.0071474304 0.09859697
-0.37589943 0.17227745 0.3818322 0.36189047 -0.02148377 -0.3286731 -0.33594286 0.08557145
-0.002187398 0.26017034 0.01753095 0.26640037 0.1600745 -0.05407118 -0.41838026 0.45846334
-0.34427583 -0.5066216 -0.098471716 -0.0054734736 0.1980392 -0.22929877 -0.015343264 0.4271503
0.39863628 0.41062063 0.33711186 -0.4086924 0.32456353 -0.17499049 -0.18474731 0.5220862
0.4098444 -0.21742053 -0.29451907 -0.27785125 -0.14555602 0.24536553 -0.4863706 -0.520283
00000000: 3d71 34be beb7 b6be c618 f3be 5553 9bbe
00000010: b15f debe c317 babd 4c82 e33e 46b0 1d3e
00000020: 6282 f6be 357b 29be 43b1 453e 9f41 e7bd
00000030: 8111 88be 48ee da3e 592e 603e 5079 563e
00000040: 9f12 4dbe c706 29be c0bb 13bd 624d 0e3e
00000050: deaa 3c3e 12e1 cbbe 683f fe3e e647 523d
00000060: cc9a 9cbe e27b 5e3d aa96 99be c79f c53e
00000070: 83f9 0b3e db75 953e f1cc b1be 3997 9b3d
00000080: 716a 323e 3544 8fbe 7586 01be e62e ddbd
00000090: f94c 27be d19c 5e3c f8eb b5be c573 b6bd
000000a0: 5009 5d3e c0fe 803e acdc b7be e719 413e
000000b0: 31c7 933e 16d2 c8bd ecf4 57be 924d df3c
000000c0: fbe6 ba3e 8361 9dbe d053 31be 6bd9 9dbc
000000d0: 39d9 c3be ab71 3c3e e14e cfbe cc29 dabc
000000e0: ffdb a23e 2f58 cfbe 0794 96bd 2e37 77bd
000000f0: c313 81be 45cb 9a3e 0c3a 76bd 192d b1be
00000100: a2ff c23e a805 cb3e c18e d63e e8a2 463e
00000110: 28f9 69be 1fd3 f2be e990 42bd bba6 97bd
00000120: e710 fbbd 8f32 e4be 15ea f9bd e22f a5be
00000130: 5be0 f13e 1e16 3fbe 9ec4 843e 6892 223e
00000140: dd79 8e3e ca7d 98bd 50c9 083e 02d4 9bbe
00000150: 86bf 9abe 8eef 293e fe34 eabb 35ed c93d
00000160: e475 c0be 8069 303e 837f c33e b549 b93e
00000170: bbfe afbc d747 a8be b400 acbe 1640 af3d
00000180: 735a 0fbb 0c35 853e 119d 8f3c a165 883e
00000190: 92ea 233e be79 5dbd f035 d6be b5bb ea3e
000001a0: ec44 b0be f4b1 01bf 8aab c9bd d35a b3bb
000001b0: caca 4a3e 4ccd 6abe 5062 7bbc 72b3 da3e
000001c0: 0e1a cc3e de3c d23e ed99 ac3e 2140 d1be
000001d0: 312d a63e b530 33be 662e 3dbe 71a7 053f
000001e0: 20d7 d13e 7da3 5ebe 34cb 96be 8542 8ebe
000001f0: a30c 15be 1a41 7b3e 9105 f9be 4431 05bf
